test3_critic.pth (torch, 20794 bytes, 5 tensors)

fc1.weight f4 [64, 4]
00000000: f341 f7be dd8c c7be c39a aabe 7b9c ddbe
00000010: b967 9e3e a8e6 e3be 318c 00bf a286 7abe
00000020: 8972 ab3e f296 e4bc 0496 833b 851a 76be
00000030: a2b7 383e 71ce 6f3e cd6e c63e c992 e73e
00000040: 4003 51be f8e3 a9be ab12 863e d714 263e
00000050: 0341 c93d f5cd 95be 77dc 95be 8d14 133f
00000060: d3f7 8fbe d8fb f33e 5de4 01bf 92ce 06bc
00000070: 8b46 e4bd 9e8c b03e 100d 173f 2671 9abe
00000080: d692 c93c 7854 a1be cff8 9dbb 7f8d 50be
00000090: 239d e1be a4a4 d2bc 42c5 333f e300 52be
000000a0: 2663 b4be 62ae 603e b7ca c3be 4d65 bd3e
000000b0: 7367 cd3d 6fb2 e53e e933 3e3d 055e cd3e
000000c0: 413a da3e 0713 b5be 146e 043f 21a5 bdbe
000000d0: f3cb 783e 5bae a8be b704 e0be 17d9 323f
000000e0: 164e e33d 62e4 c43b af4e 223f fbc1 8f3e
000000f0: a878 2c3d 29e7 6d3d b35a 1fbf 8186 123e
00000100: 8d7d 103e 9984 a5bd 0f47 7cbc 72b2 94be
00000110: d6aa 01bf f7aa 82bb d9c4 6e3e f716 2ebd
00000120: b7ec 09be bf96 123e d344 063f 168d 063f
00000130: 7c45 ef3d 9bdd 8dbe 776f 9ebe b423 c93e
00000140: f3e7 1bbd 7ff2 ddbe 6900 733e 879b e4be
00000150: 6c42 d4be e062 dfbe 5a1b 9abe 211a b63d
00000160: cc23 a93e e565 b63e 6cb3 b03e 0d74 d2be
00000170: 675d acbe ad1f 283e 5e4e fbbe ee1e a93e
00000180: 27ee 1bbe 161d 03bf a7b1 03be 748a 133f
00000190: 2bcc f5be 5ad3 2fbe 4905 8dbe 107f 43be
000001a0: 3733 95be ddf8 a4bd f4a7 0fbf fff4 dfbd
000001b0: d318 e53e 3d8c e9bd 8753 34bf d1b2 0a3f
000001c0: 05ad 81be 82cf 4bbe 4efc a53e 0c79 e53d
000001d0: d666 9b3e 2d50 3abe 3d2d 2cbf ae61 723d
000001e0: 4f46 e4bb 074f b1bc 0d8c f33e eb9b f3bd
000001f0: d46b 633e 77ad e33e 7ee5 bcbe c74e cdbe
00000200: 1dd0 05bf 2045 a7bb db09 02bf 55f7 d73e
00000210: 7988 58be c021 64be f742 583e 75bd 9e3e
00000220: c08b bb3d d543 c63e 27e1 c33e 69be d53e
00000230: 920b a43e 9f51 87bc d315 1fbf cbc1 c53e
00000240: 6883 0ebe ba85 a2be c4cc 2e3f 4a49 88be
00000250: 371e 5f3e 26f5 8bbd bee3 413e 5d51 e03e
00000260: ffa3 f03c 2acc b03c d573 bdbe f1c6 acbe
00000270: 965e 8d3e 6987 e2be 5864 493e 1a2a 07bf
00000280: 8919 21bd 1afd 17bd 2541 1abe 97d6 043f
00000290: 8089 76bd f48e 463e 6ed1 b33e 633c 773e
000002a0: 1f14 c83e 6dd9 8dbe 784c 35bf 9a0d 933d
000002b0: 4243 efbe 63f7 25be 4212 0f3e e83e f83e
000002c0: a13f eb3e 8a78 9c3e 24c6 aebe 10ce 60be
000002d0: e35d 073e f0be 3d3e a88c 853d 2917 e1be
000002e0: 830a c83c 9344 ae3d a550 b03e 9fdf 1dbf
000002f0: a4e3 3d3e 9185 1bbc 5000 0c3f 9b5b 8abe
00000300: 90b8 db3e 12bc abbe 89f2 81be cfbc 4f3e
00000310: ea2a cf3d de8c dabe 0ea8 edbd 2f8d 36be
00000320: 8abd 903e 2bf8 a2be 2f25 e13e d31c 8cbe
00000330: 5d71 ecbe e990 003f 2cd4 9d3e 9784 15bf
00000340: 8043 b8be eb60 eb3e 02f6 c73e ccd1 aabe
00000350: 0d1c 0d3e b275 7b3e c868 003e e076 15bf
00000360: 8c48 a5bd 71a2 e93e e545 3f3c fd71 7e3e
00000370: 6980 03bf d83c b2be 3293 83be dda5 90be
00000380: 2ec7 c93e 68fc cd3e 317d 5e3d 5931 543e
00000390: 042d b4ba 1d6e 82bd 082c 0c3f 4673 08bf
000003a0: b875 e0bd 4d03 4c3e b241 873e e2c6 8cbe
000003b0: 6e33 db3d e617 2f3e 80ee af3e 3a4e 453e
000003c0: 4070 a53e 3eb2 debe eefa f9bc 59a5 13be
000003d0: 5920 a2be c3ff 8ebe 76fe 9ebe 7613 d6be
000003e0: 91e5 943e 6444 113f ef5a b23e c6c0 f33e
000003f0: 9e27 913e cf1d 003f b616 2dbd 7a5a cb3e
-0.48292503 -0.38974658 -0.333212 -0.43283448 0.3093851 -0.44511914 -0.50213915 -0.24465421
0.3348582 -0.027904008 0.004015686 -0.24033554 0.180388 0.23418595 0.3875641 0.45229176
-0.20411396 -0.3318174 0.26186118 0.16218887 0.09826853 -0.29258695 -0.29269764 0.57453233
-0.28118762 0.4765308 -0.5073908 -0.008227961 -0.111462675 0.34482282 0.59004307 -0.3016445
0.02460615 -0.31509757 -0.00482092 -0.20366476 -0.44065198 -0.025713272 0.70222867 -0.20508151
-0.35231894 0.21941522 -0.38240597 0.3699135 0.10029497 0.44862697 0.046436224 0.40110794
0.4262257 -0.3536608 0.51730466 -0.37040046 0.2429655 -0.32945523 -0.43753597 0.698625
0.11098878 0.0060086707 0.6340131 0.28077683 0.042107254 0.05808178 -0.6224777 0.14309122
0.14110394 -0.080819316 -0.015397801 -0.29042393 -0.506513 -0.0039876658 0.23317279 -0.04250237
-0.13469206 0.14315318 0.5244877 0.5255903 0.11683175 -0.27708134 -0.30944416 0.39285052
-0.038063 -0.43349072 0.23730625 -0.44649908 -0.41456926 -0.43630123 -0.30098993 0.088917024
0.33035123 0.35624614 0.34511888 -0.41104165 -0.3366501 0.16418333 -0.49083227 0.3303141
-0.15227567 -0.51216257 -0.12860738 0.5763314 -0.4800733 -0.17170468 -0.27543095 -0.19091439
-0.29140636 -0.080552794 -0.5611565 -0.10935401 0.44745502 -0.114037015 -0.7043995 0.541791
-0.25327316 -0.19903377 0.32419056 0.112047285 0.30351895 -0.18194647 -0.6725653 0.059175186
-0.0069663893 -0.021644128 0.47567788 -0.11894973 0.22209102 0.4446828 -0.3689384 -0.40099165
-0.5227068 -0.005104676 -0.5079629 0.42180887 -0.2114581 -0.222785 0.21119295 0.3100392
0.091575146 0.38723627 0.38257715 0.41746834 0.32040077 -0.016518412 -0.62142676 0.38624415
-0.13917315 -0.3174265 0.682812 -0.26618415 0.2178887 -0.06833868 0.18934533 0.43812075
0.029375074 0.021581728 -0.37002435 -0.3374553 0.27611226 -0.44243935 0.19667184 -0.52798617
-0.039330993 -0.03710661 -0.15063913 0.5188994 -0.060189724 0.1939047 0.3512072 0.2414413
0.3907785 -0.27704945 -0.7081981 0.07180329 -0.46731 -0.16207652 0.13971809 0.48485494
0.45946983 0.30560714 -0.34135544 -0.21953607 0.13219409 0.18529868 0.06520969 -0.43962982
0.024419075 0.08509173 0.34436527 -0.61669344 0.1854387 -0.009492294 0.54687977 -0.27023014
0.42914248 -0.33541924 -0.25380352 0.20286869 0.10115607 -0.42685598 -0.116043195 -0.17827295
0.28269607 -0.31829962 0.4397368 -0.2736574 -0.4618024 0.50221115 0.30825937 -0.5840544
-0.35988998 0.4597238 0.39054877 -0.33363187 0.13780232 0.24556616 0.12539971 -0.58384514
-0.08070478 0.45631745 0.011674379 0.2484817 -0.51367813 -0.34812045 -0.2569824 -0.28251544
0.39409775 0.40231633 0.05431861 0.2072195 -0.0013746326 -0.06368659 0.54754686 -0.53300893
-0.10959953 0.19923134 0.2641731 -0.27495486 0.10703169 0.1709896 0.3436165 0.19268122
0.32312202 -0.43495363 -0.03051516 -0.14418544 -0.31665304 -0.27929506 -0.31053513 -0.41811723
0.29081395 0.5674498 0.34835002 0.47608012 0.28350538 0.50045484 -0.042257987 0.39717466

fc1.bias f4 [64]
00000000: c833 a9be 6735 f03e 5d2f 6a3e db12 5abd
00000010: 04c4 7f3d 1de9 59bd 201a 023f 2869 e6be
00000020: 476a c9bd c178 99be 8806 433d c3bf 53be
00000030: efff d83c f99d afbe 6a4d 413e d4a4 a83e
00000040: 6da4 2e3f be53 a03e 718d dd3d 9c83 8c3e
00000050: 9173 8ebd ee24 f1bd ad86 0c3f 9e01 ef3e
00000060: 9a46 1f3f 4b17 9cbe 3b20 0bbc 1a90 80be
00000070: f571 963e 5fa9 013f 1c7a 953e 07f3 163f
00000080: 528d bf3d 3f78 063e c4cc c13d 7b35 f83d
00000090: 257c 063e 9dfd 003f e67d 663e 00e5 613d
000000a0: 6bc8 813e 17dc 2a3f 4998 a13e 81ab 82be
000000b0: db04 c03d 1343 0a3f 559c 97be 932f 2d3d
000000c0: 5bbe b4be 91a9 7abe 8eae ba3e 6dda 403e
000000d0: ca6a 3e3e 228c 383e 042e 75bd 9ea9 293f
000000e0: b3a4 7ebe cedf 1d3f 0a62 993d 4c81 463d
000000f0: c336 e8bd e846 9dbe 7ba0 b33d b646 99be
-0.33047318 0.46915743 0.2286963 -0.05324064 0.062442794 -0.05320083 0.50821114 -0.45002103
-0.09834724 -0.2997494 0.04761365 -0.2067862 0.026489226 -0.3430021 0.18877187 0.32938254
0.68219644 0.3131389 0.108179934 0.2744416 -0.06955636 -0.11774622 0.54893 0.4668092
0.62217104 -0.3048652 -0.008491571 -0.2510994 0.29383817 0.50649065 0.29194725 0.5896458
0.093531266 0.13131808 0.09462884 0.121195756 0.13133295 0.50386983 0.22508964 0.055150032
0.2534822 0.6674208 0.31561497 -0.25521472 0.09375926 0.540086 -0.2961146 0.0422817
-0.3530148 -0.24478747 0.364613 0.18833323 0.18595424 0.18022206 -0.059858337 0.6627444
-0.24867515 0.61669624 0.074894026 0.04846315 -0.1133857 -0.3071816 0.087708436 -0.2993676

fc2.weight f4 [64, 64]
00000000: ef55 30bd dad6 1d3d 82fa ca3d 125e 7e3d
00000010: 43b7 b23c 027e bcbc a49a c8bd 4f52 6bbd
00000020: 02c1 c73d b3bc b2bd ba62 23be 4919 eabd
00000030: 77f9 ca3d 838a 04be 927c 2bbd cc24 79bd
00000040: 1b0c 253d 0081 853d dee5 d03d b0bb bf3d
00000050: 654b 1f3d f20d c0bd 944b 90bd c422 873c
00000060: 8e27 253e 81b2 2cbb 95c6 85bc d8c6 d53c
00000070: 2b20 543d cc61 f93d 8f2c fc3d c6fe ea3d
00000080: 9563 09be b64b e63b e241 eebd b7c0 02bd
00000090: 20ec 2a3d 028e 9b3d f37a 923c 1495 983c
000000a0: f914 86bd 42db 71bd 7c0e 46bd bd20 dcbc
000000b0: 6973 8a39 67c1 773c 668d dcbd 89c6 5a3d
000000c0: c008 da3d c1f1 da3d 546c 423d e1e9 d23d
000000d0: 8c75 3e3d 7d03 413d c614 d13d 1180 81bc
000000e0: 5f14 8dbd da9e a13d 02e6 9c3d 2140 a7bd
000000f0: 254f d73c 2c36 b9bd 15c5 ce3b ff0c 063d
00000100: 1b64 ce3d 12df adbd b3a1 aebd 5be0 3ebd
00000110: 3f65 acbd 4b0f fd3b 370b 62bd d4de 05bd
00000120: 338d b3bc c654 8e3d ea22 5ebe 6111 75bd
00000130: 1676 12be e26c 76bc bd3e 24be 7234 5cbd
00000140: cb3f b9bd d77e 6e3d 131a b9bd 59ff e33b
00000150: 940b 2dbd 1b9e 753b 11e0 98ba 4dfb 86bb
00000160: 42d9 d23d 6348 e83c c595 77bd 6b46 633d
00000170: 0377 063c a72b 8dbc 253d 87bd 52e3 c73d
00000180: c25a aabd f967 b4bd e1e7 30bd d753 3c3d
00000190: 5cbd 023e 447c f7bd 578a 4fbb 7301 72bd
000001a0: 0f57 d6bc 5e40 d6bd 301a b13d 524c c13d
000001b0: 7d80 9cbd 1e3f ccbd b519 153d 0f7c 65bd
000001c0: 3584 09be aab3 603d ca74 16bd b2e7 46bc
000001d0: 3432 533d c5d4 953d d667 39be 5a59 ac3d
000001e0: dd42 bc3d 71ff 883c 5a39 01be 81fc c9bd
000001f0: c4a6 5b3d 4aae a0bd 0341 9ebd 435a c9bd
00000200: f4ee 1ebe c251 723d 7647 20bb e4c8 e2bd
00000210: 6af4 8cbc 2508 e93d f0c0 0cbd 51a7 e93d
00000220: a402 88bc ddd5 2ebd 4ff2 283c 55e6 07be
00000230: 5726 b23d 40c9 eb3d 1415 0abc 1ffc 463c
00000240: 0b5b 12bd 5186 883d 5b31 c93d df78 db3c
00000250: ca3d ccbd 753a f7bd b658 613d 92d0 2b3d
00000260: f222 8cbd c11d 5f3d 9a74 43bd 2b3e 5d3b
00000270: 474a 58bb dc1d f73b 0e5c c13d be3e e23c
00000280: 5372 27bc 6004 10bd 4b2f 5c3b bb3f c53d
00000290: 667a b43d c06d 863c 13e9 c3bd 945d 833c
000002a0: 08e6 5b3d 3133 843d 8708 083e 715b 993d
000002b0: 295c a3bd fbd0 3abd 2e12 053e 2b4c 23bd
000002c0: 57e5 4e3d 3c02 6ebd 20ee ebbb 4b95 c03d
000002d0: 84e5 523d 8b36 483c 2b61 f73b 86aa 743d
000002e0: 5a6a 21be 7b5e 0d3e 3339 a53d aa6e 60bd
000002f0: 648d 97bd 94a4 f6bd a12f f1bc 8ca5 173d
00000300: bc69 b5bc e3ee 063d a553 29bd 4a41 dfbd
00000310: a7f7 ea3d 431e 083d 819a fb3c c2ba 46bd
00000320: 1e76 69bc dd01 693d f712 41bd a9f3 04be
00000330: 9535 3bbd cc56 943d ce5a c8bb dd9f 3d3d
00000340: 7bb4 2d3d f41e 90bc f41e eebc da38 843d
00000350: bbc5 43be 2494 4ebd a450 ad3d 0574 64bd
00000360: d062 e63d 4c2c c3bd f286 13be e58d c1bd
00000370: 6eeb e93d f0c4 43bd 3e8e 2a3e 0fe1 c8bd
00000380: 9492 edbd c1cd 283b 5ddb 943c 7a18 e13d
00000390: 4236 5abd 0720 26bc a798 59bd 35f3 38bd
000003a0: 68e0 d43d c441 8a3d 7140 143d d803 a93c
000003b0: a433 b83d 20f0 85bd b084 783d a086 963b
000003c0: 3870 12be 9b98 efbd da1f 16bd f8f4 9e3d
000003d0: 7bde 3d3b 9d6b 253e a97f 2cbd ca6e 69bd
000003e0: b1bb de3c df13 cc3d ae22 943d 5a84 06be
000003f0: ff52 70bd a0da 74ba 6382 26be c6ba 0abc
-0.043050703 0.038534977 0.09911062 0.06210143 0.021815902 -0.023009304 -0.0979512 -0.057451542
0.0975361 -0.08727398 -0.1595563 -0.11430604 0.09910863 -0.12943463 -0.041866846 -0.060826108
0.040294748 0.065187454 0.10200094 0.093619704 0.03889026 -0.0937766 -0.070456654 0.01649607
0.1612837 -0.0026351514 -0.016330043 0.026095793 0.05178849 0.121768564 0.123131864 0.114743754
-0.13416894 0.0070280684 -0.1163366 -0.03192207 0.041729093 0.07595445 0.017880892 0.018625773
-0.06546969 -0.05904699 -0.048353657 -0.02687108 0.00026407398 0.015121794 -0.10769157 0.053411994
0.106462 0.10690642 0.04746659 0.10298515 0.04649882 0.047122467 0.1020904 -0.015808137
-0.06888651 0.07891627 0.07661058 -0.081665285 0.026282856 -0.090435356 0.006310115 0.032727238
0.10077687 -0.08489813 -0.085269354 -0.04660068 -0.08417749 0.0077227703 -0.055186477 -0.03268321
-0.021917915 0.06949763 -0.21693006 -0.059831027 -0.14302859 -0.015040608 -0.16039558 -0.053760953
-0.09045371 0.058226433 -0.090381764 0.00695793 -0.04224737 0.0037478271 -0.0011663457 -0.004119313
0.10295345 0.02835483 -0.060445566 0.055487078 0.008207086 -0.01723273 -0.06603459 0.09760155
-0.08318092 -0.08808894 -0.043189887 0.045978393 0.12767547 -0.12084249 -0.003166815 -0.059083413
-0.02616456 -0.10461496 0.08647573 0.09438385 -0.07641695 -0.09972976 0.03640147 -0.056026515
-0.13429339 0.05485884 -0.036732472 -0.012140201 0.05156155 0.07315973 -0.18106017 0.0841548
0.09192441 0.016723366 -0.12619534 -0.098626144 0.053625837 -0.07845743 -0.07727244 -0.09831669
-0.15520841 0.05916 -0.0024456657 -0.11073473 -0.01720639 0.113785066 -0.034363687 0.11408866
-0.016602822 -0.042684425 0.010311677 -0.13271458 0.08698719 0.11512995 -0.008427877 0.012145071
-0.035731357 0.06666244 0.09823867 0.026791034 -0.09972723 -0.12071697 0.055016242 0.041946955
-0.06842603 0.054471735 -0.04771862 0.0033758979 -0.0033003257 0.0075414013 0.09441386 0.027617808
-0.010220128 -0.035160422 0.0033597525 0.09631296 0.08812408 0.016409755 -0.0956594 0.016035832
0.05368617 0.064550765 0.13284503 0.07488144 -0.079765625 -0.045609456 0.12995216 -0.03986756
0.050511684 -0.0581076 -0.0072000176 0.094034754 0.051488414 0.012220035 0.007549425 0.059732936
-0.15763226 0.13805573 0.080675505 -0.054793037 -0.07400015 -0.120431095 -0.029441657 0.037023112
-0.022145145 0.032942664 -0.041339535 -0.10901125 0.11473017 0.033231985 0.030713322 -0.04851795
-0.014249353 0.056886543 -0.047137227 -0.12983574 -0.045705397 0.07243118 -0.0061143404 0.046295036
0.042408448 -0.017592885 -0.029067494 0.06456156 -0.19118397 -0.050434247 0.084626466 -0.055774707
0.11249316 -0.09529933 -0.14406946 -0.09450892 0.11421858 -0.047795236 0.16655824 -0.098085515
-0.11600223 0.0025757405 0.018171007 0.10990997 -0.0532744 -0.010139472 -0.053124096 -0.045153815
0.103943646 0.06750825 0.03619427 0.020631716 0.08994225 -0.06539941 0.060673416 0.0045936853
-0.1430062 -0.11699029 -0.03665147 0.07761568 0.002897172 0.16154332 -0.042113934 -0.056990422
0.027189108 0.099647276 0.07233177 -0.13136426 -0.0586729 -0.0009340439 -0.16260676 -0.008467382

fc2.bias f4 [64]
00000000: 2256 823d fd87 323e b694 d43c 6a31 b83d
00000010: 0ead 143e f55a c33d f5ea c23d 382b 963d
00000020: 267a 193e 30bf 28bc 5880 95bd aa7c a63d
00000030: 6dcd b93c 25c6 f63d aeb6 58bd b853 a13d
00000040: 7d8d abbd d4f0 1e3d e93f 853b dd7a 473e
00000050: a2b8 283e 838d 75bd 349a 593e 9fbf 8e3c
00000060: 176c b63d 6aaa 093d 6f0f 973c 96a5 853d
00000070: 206e e73c 1303 7b3d 5e0f 0c3e fd2f 75bd
00000080: 3fdc c43d adaa 053e 8478 ba3c e9bd 6f3e
00000090: e197 ab3c 6ff4 5a3e 7a6d 8f3d fadf 3f3e
000000a0: 6795 013e b7c9 e03d a235 6c3b a54b 903d
000000b0: be6e 133e 4121 1fbd 74b9 113e d303 b8bc
000000c0: 27e7 093e 06ca e33d e1a5 7c3d f075 52bd
000000d0: e634 033e 2e2c 1a3e b5cf e9bc bb26 11bd
000000e0: 030b 1f3e 1068 aabd b3a0 ec3d bf33 963d
000000f0: 5d16 133e 6e31 143e 6f18 f53d 910b 4c3e
0.06364085 0.17434688 0.025949817 0.089938 0.1451914 0.09538833 0.09517471 0.07332462
0.14988002 -0.010299489 -0.0729987 0.081292465 0.022680962 0.12049512 -0.052908592 0.07877296
-0.08376596 0.03880389 0.0040664566 0.19480462 0.16476682 -0.05994941 0.2125023 0.017425356
0.08907335 0.033609785 0.018439976 0.06525724 0.028250754 0.06128223 0.13677737 -0.05986022
0.09612321 0.13053389 0.022762544 0.23412289 0.020946445 0.21382307 0.07003303 0.18737784
0.12654649 0.10975974 0.003604271 0.07045678 0.14397714 -0.038850073 0.14230901 -0.022462761
0.13467084 0.11122517 0.061681632 -0.051382005 0.12813148 0.15055916 -0.028541425 -0.035437327
0.15531544 -0.083206296 0.115540884 0.073340885 0.14364 0.14471981 0.11967551 0.19926287

fc3.weight f4 [1, 64]
00000000: 7a6e 1e3e bff5 6bbd 5d92 6ebd 6998 5ebe
00000010: a44a 9c3e 3f80 56be bd1a 3abe f856 4e3e
00000020: 15a8 0fbe b361 353e ac49 3dbd 0681 3bbe
00000030: 6625 82be 1989 a1be c63a 133e 8285 74be
00000040: f281 fb3d fc7e 3a3e 5f87 ffbd 5400 41be
00000050: 844c 803e 3e5a 5ebe e796 fbbd 3bd0 6e3e
00000060: 8791 183e a37f 7a3e 12ac 083e fc15 3d3e
00000070: 4b77 5bbe 7ee8 40be b469 5e3e a469 473e
00000080: f0f4 4d3e 762f 653e eaf5 3a3e b1a0 0abe
00000090: 8700 083e 921b 7abe a493 da3d 8e08 29be
000000a0: 313a ecbd 7ca5 543e e55c 893e de99 443e
000000b0: 9c11 0bbe 2f2d 6d3e f50c 12be 6103 3b3e
000000c0: b630 d1bd e5ab 4d3e 369e 7d3d bc37 b7bd
000000d0: 42d0 453e ab5d 36be b1f2 ed3d 6d5e 3fbe
000000e0: 2dc4 86bd 8d4e 2b3e 9d66 893e 9dce 513e
000000f0: 471b 393e 2869 363e da24 813e fcce 18be
0.15471831 -0.05760741 -0.05824505 -0.21737827 0.30525696 -0.2094736 -0.18174262 0.20150363
-0.14028962 0.1771305 -0.046212837 -0.18310937 -0.25419158 -0.3154991 0.14377889 -0.23879054
0.122806445 0.18212503 -0.12476992 -0.18847781 0.25058377 -0.21714112 -0.12284642 0.23321621
0.14899264 0.24462752 0.1334689 0.18465418 -0.21432225 -0.18838689 0.2172001 0.19473892
0.20112967 0.22381386 0.18257871 -0.13537861 0.13281451 -0.2442458 0.106726915 -0.1650717
-0.11534537 0.20766252 0.26828685 0.1919932 -0.13580936 0.23161767 -0.14262755 0.18263008
-0.10214369 0.20085104 0.06191846 -0.08946177 0.19317725 -0.17809169 0.11618555 -0.18688364
-0.06580386 0.16729183 0.268361 0.20488973 0.18076812 0.17813551 0.25223428 -0.14922708
