test3_target_actor.pth (torch, 3432 bytes, 4 tensors)

fc1.weight f4 [64, 2]
0	0xbf1811e1	-0.5940228
1	0xbefca848	-0.49347138
2	0x3efd71c8	0.4950087
3	0xbf0dee11	-0.55441386
4	0xbce16897	-0.027515693
5	0xbef75801	-0.4830933
6	0x3d5498d2	0.051903553
7	0x3ebb4504	0.36576092
8	0x3efdc4ee	0.49564308
9	0x3e9a1801	0.3009644
10	0xbe7fe092	-0.2498801
11	0x3f29bed4	0.66306806
12	0x3eb14e72	0.34630162
13	0x3e84735e	0.25869268
14	0xbe8a15d5	-0.26969782
15	0xbef65ec3	-0.48119172
16	0x3f14f110	0.5818033
17	0xbdfd7fb8	-0.12377876
18	0x3f134669	0.5752931
19	0xbed97169	-0.42469338
20	0xbedbaf70	-0.42907286
21	0xbd1e6e63	-0.03867949
22	0x3f27f93d	0.6561468
23	0xbec6d409	-0.38833645
24	0xbe29e0ba	-0.16589633
25	0xbe8c201a	-0.27368242
26	0x3f01f2ee	0.50761306
27	0x3f09dbf2	0.53851235
28	0x3f13d22a	0.5774256
29	0xbe765236	-0.24054798
30	0xbf13a609	-0.57675225
31	0xbdfe9a51	-0.12431777
32	0x3d20048c	0.039066836
33	0x3f0d246e	0.5513371
34	0x3ee751bd	0.4517955
35	0xbf1961bc	-0.59914756
36	0xbe30eade	-0.17277095
37	0xbf21981e	-0.6312274
38	0xbf012b19	-0.50456387
39	0xbef56256	-0.47926587
40	0x3da14600	0.078746796
41	0x3e7edc34	0.24888688
42	0x3eddb49d	0.4330186
43	0x3ebb8fa0	0.36633015
44	0x3f0241ec	0.5088184
45	0xbe37f4b5	-0.17964442
46	0x3edf0ab7	0.43562862
47	0x3f300981	0.687645
48	0x3f3c3c9b	0.73529977
49	0x3f23a7a9	0.63927704
50	0x3e040bb2	0.12895086
51	0x3b232adc	0.0024897372
52	0x3f39f4ad	0.7263897
53	0xbe71e327	-0.23621808
54	0x3e90b467	0.28262636
55	0x3e9ce04f	0.30639884
56	0xbdba5a6b	-0.09099277
57	0x3da81142	0.08206417
58	0x3e9da0bb	0.3078669
59	0x3f18d662	0.5970212
60	0x3efab98c	0.48969686
61	0xbdc48cc0	-0.095971584
62	0xbe4afd62	-0.1982322
63	0xbeb8374e	-0.35979694
64	0x3d94d6f7	0.07267564
65	0x3eb0579b	0.34441838
66	0xbebd6ae1	-0.36995605
67	0xbdc2a970	-0.09504974
68	0xbdc6f18b	-0.097140394
69	0xbd4121e4	-0.04715146
70	0x3ea270a8	0.31726575
71	0xbeb93230	-0.36171103
72	0xbd8f0c96	-0.069848225
73	0x3f19ed5a	0.60127795
74	0xbccad1ca	-0.024758238
75	0xbe228130	-0.15869594
76	0xbea21ed3	-0.31664142
77	0x3f134c85	0.57538635
78	0x3f15503f	0.5832557
79	0x3ee59f3f	0.44848058
80	0xbf31ea77	-0.6949839
81	0x3e767159	0.24066676
82	0xbdd397a4	-0.103316575
83	0x3f2011d7	0.6252722
84	0xbefa676a	-0.48907024
85	0x3d992488	0.07477671
86	0xbeb1c228	-0.34718442
87	0xbf06865d	-0.5254877
88	0x3f17a90d	0.59242326
89	0xbdd5ac32	-0.10433234
90	0x3f3b191e	0.730852
91	0xbe180b79	-0.14848126
92	0x3f2b1041	0.66821676
93	0x3f38ea1d	0.7223223
94	0xbc6c8ed0	-0.014438346
95	0xbf31049c	-0.6914766
96	0xbf105c8d	-0.5639122
97	0xbd8dced3	-0.06924214
98	0x3f261ff3	0.648925
99	0xbeab657d	-0.33475867
100	0x3f2053ec	0.62628055
101	0xbe409197	-0.18805538
102	0x3f1181a8	0.56838465
103	0xbcb8ff31	-0.022582622
104	0x3f17c249	0.5928083
105	0xbec8f94f	-0.39252707
106	0x3f0f6e66	0.5602783
107	0xbe053351	-0.13007857
108	0x3e9579db	0.2919453
109	0x3f0bdfea	0.5463854
110	0x3e8799bb	0.26484475
111	0xbe2e7221	-0.17035724
112	0xbf2bfff7	-0.67187446
113	0xbf39006e	-0.7226628
114	0x3eee333d	0.46523467
115	0xbeeb30b5	-0.45935598
116	0xbf00c5c5	-0.5030177
117	0xbe3ce757	-0.18447624
118	0xbe8dac45	-0.27670494
119	0xbe26b6e9	-0.16280712
120	0x3eee2d49	0.46518925
121	0xbf0ea7c4	-0.5572474
122	0xbf21c99b	-0.6319825
123	0x3f255c43	0.64593905
124	0x3dcc15f1	0.099651225
125	0xbe0378d1	-0.12839057
126	0x3e9b7031	0.30359033
127	0x3e4ac9d3	0.19803552

fc1.bias f4 [64]
0	0x3e34abb3	0.17643623
1	0xbefc9757	-0.49334213
2	0x3e94ad50	0.29038477
3	0xbe1048db	-0.14090292
4	0xbf2ae285	-0.6675189
5	0x3e25cf6e	0.1619241
6	0xbe3921be	-0.18079278
7	0x3eaf5d4b	0.34250864
8	0xbed41db8	-0.41428924
9	0x3e43b63f	0.1911249
10	0x3f180050	0.59375477
11	0x3edae3ea	0.4275201
12	0xbdc34458	-0.0953452
13	0xbf3262b0	-0.69681835
14	0xbef08afd	-0.4698104
15	0x3efe5ceb	0.49680266
16	0x3e11632e	0.1419799
17	0xbf1561b6	-0.5835222
18	0x3e4e719b	0.20160525
19	0x3f36df6c	0.71434665
20	0xbf265731	-0.64976794
21	0xbe3a3390	-0.18183732
22	0x3ea0eda8	0.31431317
23	0xbe0d5f53	-0.13805895
24	0x3ec5fc34	0.38668978
25	0x3eb35516	0.35025853
26	0xbec7ccc9	-0.39023426
27	0xbe93a4a8	-0.2883656
28	0x3f28dccf	0.6596193
29	0x3d83904f	0.06424009
30	0xbe48edaa	-0.19621912
31	0xbe42ea9e	-0.19034812
32	0xbddeac22	-0.108726755
33	0x3f213ec5	0.62986404
34	0xbe72abf8	-0.23698413
35	0x3d18a1ce	0.037263684
36	0x3e41d591	0.18929125
37	0x3e2ceffa	0.16888419
38	0x3e7a87bb	0.2446584
39	0x3eb42247	0.35182402
40	0x3efcf518	0.49405742
41	0xbef1b214	-0.47206175
42	0x3c3d7d7d	0.011565563
43	0x3e7f24d6	0.24916396
44	0xbf26d7ad	-0.65172845
45	0xbe8cc000	-0.27490234
46	0x3e25f274	0.1620577
47	0xbdbd2b73	-0.09236803
48	0x3ef14f9e	0.47131056
49	0xbe9e26ac	-0.3088888
50	0x3e989b49	0.29805973
51	0x3dee8968	0.11647302
52	0xbf054f12	-0.52073777
53	0x3f3dcda6	0.7414192
54	0xbf085ecf	-0.53269666
55	0xbf1d92f5	-0.61552364
56	0x3de44857	0.1114661
57	0x3f0907ae	0.53527343
58	0xbe42a5d5	-0.19008572
59	0xbed9c610	-0.42533922
60	0x3da40775	0.08009235
61	0x3ebbffb7	0.36718532
62	0xbde4a959	-0.11165113
63	0xbf0dc966	-0.55385435

fc2.weight f4 [2, 64]
0	0x3d6dc5d4	0.05804999
1	0xbd9045dd	-0.07044575
2	0xbde0f4ab	-0.10984167
3	0xbd4a61aa	-0.049409546
4	0xbba5d6f2	-0.005061024
5	0x3c7f974e	0.015600039
6	0x3e050bf8	0.12992847
7	0x3da49756	0.080366775
8	0x3dfb286a	0.12263568
9	0x3da55c8d	0.08074293
10	0xbd6ce696	-0.05783709
11	0x3d885568	0.06656915
12	0xbdaa383a	-0.083115056
13	0xbd9762e2	-0.07391907
14	0xbcd95d1a	-0.026533652
15	0xbdfc2c3b	-0.12313124
16	0xbca7315f	-0.020409284
17	0x3da882a1	0.082280405
18	0xbd874c50	-0.06606352
19	0xbe06f5aa	-0.13179651
20	0x3c305d88	0.010764487
21	0xbd637267	-0.055529024
22	0x3dc25b0c	0.09490022
23	0xbda3950e	-0.07987414
24	0x3df218fe	0.11821173
25	0x3cf8209b	0.030288985
26	0x3e1f83b5	0.15577586
27	0xbd66001b	-0.056152444
28	0xbdeef53a	-0.11667867
29	0xbda1c5e4	-0.07899073
30	0x3decf1c7	0.11569553
31	0xbc29d0dc	-0.010364737
32	0xbd8a271c	-0.06745741
33	0xbc1ae81a	-0.009454751
34	0x3d200e42	0.039076097
35	0xbcc2e68f	-0.02379158
36	0xbd21230f	-0.039340075
37	0x3cbf9a9d	0.023389155
38	0xbd847a89	-0.06468684
39	0x3c8585ea	0.016299207
40	0xbdee19d8	-0.11626023
41	0x3d58fccc	0.05297546
42	0x3d334c32	0.043773837
43	0x3db97fea	0.09057601
44	0xbd139ed7	-0.036040153
45	0x3d80db8a	0.06291874
46	0x3d959bd5	0.07305113
47	0x3de1afed	0.11019883
48	0xbe188e85	-0.14898117
49	0xbd814e75	-0.063137926
50	0x3c648b5e	0.013949243
51	0xbd95132e	-0.07279049
52	0xbdb64e3e	-0.08901642
53	0x3e0c91cf	0.13727497
54	0x3dd92dbf	0.106044285
55	0x3da87e55	0.08227221
56	0xbdf2c800	-0.11854553
57	0xbc2d437c	-0.010575172
58	0xbe1f69ca	-0.15567699
59	0xbdbc24c2	-0.091866985
60	0x3e1f68a7	0.15567265
61	0x3da37ec1	0.07983161
62	0xbdc0c17b	-0.094119035
63	0xbc91df8a	-0.017806787
64	0xbd51db32	-0.05123443
65	0xbde8d512	-0.11368765
66	0xbcdc5d5b	-0.026899984
67	0xbcf48317	-0.029847665
68	0xbcfb22a1	-0.03065616
69	0x3d1676fd	0.03673457
70	0x3c828099	0.01593046
71	0x3d99e31b	0.0751402
72	0x3dd35b67	0.10320168
73	0xbc8587fa	-0.01630019
74	0x3e0ed257	0.13947426
75	0xbdfb4ae6	-0.12270145
76	0xbdaea73b	-0.085279904
77	0x3caedb40	0.02134478
78	0x3d8bd105	0.06826977
79	0xbcf73208	-0.030175224
80	0x3d7dbbb6	0.061946593
81	0xbda92e7a	-0.08260818
82	0xbdd11365	-0.10208777
83	0xbddcd982	-0.10783674
84	0xbdb52a20	-0.08845925
85	0x3d2f3ba4	0.042781487
86	0xbdd4052d	-0.1035255
87	0xbd5bebd7	-0.05369171
88	0x3dd0175f	0.10160708
89	0xbd861c76	-0.06548397
90	0x3cdb3998	0.026760861
91	0x3da29c15	0.079399265
92	0x3cf4daad	0.029889429
93	0xbc28dd77	-0.010306708
94	0xbc8b30ff	-0.016991137
95	0xbd018867	-0.031624224
96	0x3e10c034	0.1413582
97	0x3d878a06	0.06618123
98	0xbd6e3717	-0.058158007
99	0xbd2e152d	-0.042500664
100	0xbca9c2a7	-0.0207227
101	0xbe065b2d	-0.13120718
102	0x3e1926d0	0.14956212
103	0xbd6b76b9	-0.05748627
104	0xbd106d6c	-0.035260603
105	0xbd9e22dc	-0.07721493
106	0x3d8cf344	0.06882337
107	0xbdfb26e1	-0.12263275
108	0x3dd2d59a	0.102946475
109	0xbe005ec5	-0.12536152
110	0x3df457b3	0.1193079
111	0xbcad7c3f	-0.02117741
112	0xbcaddf0f	-0.021224527
113	0xbd9329c6	-0.07185702
114	0x3d06f8ae	0.032952003
115	0x3ce474e9	0.027887778
116	0xbd0c3d60	-0.03423822
117	0xbdea7fc1	-0.114501484
118	0x3da8f797	0.08250349
119	0xbd57c228	-0.052675396
120	0xbdf256f1	-0.11832989
121	0x3cb6fd06	0.022337448
122	0x3d83e299	0.064397044
123	0x3d239216	0.03993424
124	0x3cde1bb3	0.027112817
125	0x3dd7a20c	0.10528955
126	0xbe18022d	-0.1484458
127	0x3d8a59b6	0.06755392

fc2.bias f4 [2]
0	0x3dff6220	0.12469888
1	0x3de9a986	0.11409287
